model/model.pth (torch, 333615 bytes, 10 tensors)

conv1.weight f4 [16, 3, 5, 5]
00000000: 9bf5 103e 0e03 d63d 51bd da3d 78ec 1a3e
00000010: 0154 bd3d 4736 92bd 85dc da3d 7004 183d
00000020: 23db dcbd a52d 6e3d 6b4e c1bc 5494 903d
00000030: 0c2e b0bc c8f7 653d 471a e43d fbdd 77bd
00000040: 5d5d a8bb 7a30 933d 5b16 e7bc 6a08 c73d
00000050: 7bed 893c 4278 0e3d 0a52 123e 5d6c d53d
00000060: 874a 743d 44ef 3c3c daa8 983d d7aa b33d
00000070: abe2 9abd a0ec c83d 5922 ac3d 9368 9c3d
00000080: 1407 91bd c782 8cbd 5cc1 d23d f070 b63d
00000090: 5128 35bd 5f25 04be e6ab e83b 1bce a13c
000000a0: 4ce6 af3d 40b1 723d b57b b73d 513a d9bd
000000b0: af29 ef3c 9c78 ce3d 23cb d53d f998 5bbd
000000c0: 7574 1abd b102 92bd dfd6 fbbd 4700 35be
000000d0: 084e 693d 24f7 8b3a 6591 cebd 3144 9bbd
000000e0: a688 d3bd 9b15 183c 3c16 f7bd fc68 573d
000000f0: 6300 edbd 573b e73c 2464 433d a045 9c3d
00000100: 2a44 8ebc 6e2d 00be 71b4 90bd a3c1 4d3c
00000110: 4a26 d83d ee68 0dbd afb3 8cbd c2ad 23be
00000120: c33a 39bd bef5 c53c 97e1 e43d 65eb 4ebe
00000130: 3db9 aabd ad49 773c 3a3a 0d3e b6be 383e
00000140: 55da 33ba 1d05 35bd ff2b 4dbd ed96 fa3d
00000150: f0be 1e3e 1ff0 86bd d2e5 f8bd d2ae 44bd
00000160: 74f9 52bc db79 d03d 935d 80bb ef1c 543d
00000170: 8d91 b0bc bcce 5b3d 2e88 fabd ee33 f53d
00000180: b63f 9f3d 8200 27be 7de9 2ebe 6628 d1bd
00000190: 52d0 25be b7b6 4cbc 1795 aa3d 5d53 183e
000001a0: 965c d739 4b4d 8b3a 06fc 383d c697 d2bd
000001b0: f088 b93d 465c b73d 39fe d9bd 758a abbd
000001c0: 749e 72bd a820 ce3d 161e 1ebd 9b31 bcbc
000001d0: e14e f4bc 1017 043d 8ab1 d3bd da69 9abd
000001e0: 59f2 0a3e afae bebd ec1f 683d 4628 963a
000001f0: 3762 743d 5a69 f83d b049 613b c1db 81bd
00000200: f07d 7a3c 83fe a03c 0130 2a3e 477c de3d
00000210: 570d 0bbe 260a e43d 4716 6c3d b1ed b43c
00000220: e790 b8bc fcb3 c3bd 94cc f33d 790c f33d
00000230: 0ce8 813d 05ed 8fbd 02c9 04be b808 0f3d
00000240: 7bce 843d 1211 88bd e383 fdbd aa68 12be
00000250: b26d 413d 69b3 b5bd 4500 97bd 5acc 613d
00000260: a37e d7bd 7e2b b53d 9455 08be a4f5 073e
00000270: 766b 8cbd f052 bebd b67c 60bd ff7a ebbc
00000280: 5c7d 48bd ce80 e73c 5419 263d fc6b 9bbd
00000290: 1a5e e03d a554 4bbd 189a 033e 8f92 903d
000002a0: c1e4 94bc 0734 bcbd be56 d83c 9e02 7abd
000002b0: 4659 a1bb 088d e23d 63cf d9bd 785d 13bd
000002c0: 61ce 15be 5161 01be 9505 98ba 2072 8a3b
000002d0: a961 c03d 72e5 53bd 8bcf e93d 5650 043c
000002e0: b9d4 b2bd 98e7 e93d 0769 053e 9777 eabc
000002f0: 367b 07bd 6142 05be 21de 023d afc5 9b3d
00000300: 6f75 76bc 047c ac3c fb71 debc 3378 013e
00000310: 4ee6 db3d ad8a 093e 3ca8 4b3d 6cb5 953c
00000320: 9151 e03b cd38 08be e6ca 81bd b33f eb3c
00000330: 8aef c1bd 58cf 2c3e bd5e 66bd 493c 493d
00000340: 3dbf 44bd d517 97bd 1388 acba 22a7 c9bd
00000350: e913 08be 39eb f4bd 383f fc3d 04d3 983d
00000360: 8cc8 09be 6fda 2a3d 3d5d e0bd 1265 b63c
00000370: 6487 a83d 6070 6eba d1ca b63d 4b8a 8d3c
00000380: a93b f33b cb6b 93bd 27e3 a2bc 3e62 dcbc
00000390: a451 47be e8fe 4fbe c04d 5abe 17c4 2cbe
000003a0: f1c6 493c df5f 28bd e539 11be 5cb1 b13d
000003b0: 938f 1c3d 9faa b8b9 7693 c8bd ca65 4bbe
000003c0: 117c bcbd b815 1bbe 2455 ecbd fd14 bebd
000003d0: 1df4 c0bd 4e1e 5c3d f986 4e3c 0b44 043c
000003e0: d5fd 92bd d4a1 a5bc b01d 713d 37c0 df3d
000003f0: c12d f33d 1516 063e 4fdf 193e 7e97 9bbd
0.14156191 0.104498014 0.106806405 0.15129268 0.09244538 -0.07139259 0.10686592 0.037113607
-0.107839845 0.058149 -0.023596963 0.07059541 -0.021506332 0.056144506 0.111378245 -0.06051443
-0.005138083 0.071869805 -0.028208902 0.09718402 0.016836872 0.034782656 0.14289108 0.10421059
0.059641387 0.011531655 0.07454081 0.087728195 -0.07562765 0.09810758 0.08404989 0.076371334
-0.07081428 -0.06860881 0.102907866 0.0890826 -0.0442279 -0.12904881 0.00710057 0.019751599
0.085888475 0.05925107 0.08959142 -0.10606826 0.029194681 0.10081598 0.10439136 -0.053612683
-0.03770872 -0.071294196 -0.12296843 -0.17675887 0.056959182 0.0010678512 -0.100863256 -0.07581366
-0.10328798 0.009282495 -0.12064788 0.052590355 -0.115723394 0.028226538 0.047702923 0.076304674
-0.017366488 -0.1251733 -0.070656665 0.012558374 0.10554178 -0.034523897 -0.068702094 -0.15984252
-0.045222055 0.02416503 0.1117584 -0.20206983 -0.08336113 0.015093249 0.13791743 0.180415
-0.0006860842 -0.04419433 -0.050090786 0.12235818 0.15502524 -0.06588768 -0.1215321 -0.048018284
-0.012876857 0.10179492 -0.003917405 0.051785406 -0.021553779 0.053663954 -0.122330055 0.119727954
0.07775824 -0.16308787 -0.17081256 -0.102127835 -0.16192749 -0.0124947345 0.08329218 0.1487555
0.00041076978 0.0010627893 0.045162223 -0.10282855 0.09059322 0.08953147 -0.10644192 -0.08376018
-0.059233144 0.100648224 -0.03860291 -0.022972872 -0.029822769 0.032248557 -0.10336597 -0.07539721
0.13569011 -0.09310662 0.056671068 0.0011456094 0.059663977 0.12129469 0.0034376197 -0.06340743
0.015288815 0.01965261 0.16619875 0.10863548 -0.13579307 0.11134748 0.057638433 0.022085996
-0.022530032 -0.09555814 0.119042546 0.11867613 0.063430876 -0.0702763 -0.12967303 0.034920424
0.064846955 -0.06643881 -0.12378671 -0.14297739 0.047223754 -0.088721104 -0.07373098 0.055126525
-0.10522201 0.08846186 -0.13313895 0.13277298 -0.06856434 -0.09293163 -0.054806434 -0.028745173
-0.048947677 0.028259661 0.0405515 -0.07588956 0.109554484 -0.04964127 0.12851751 0.07059204
-0.018175485 -0.09189611 0.02640855 -0.061037652 -0.0049239723 0.11062056 -0.10635259 -0.03597781
-0.14629509 -0.1263478 -0.0011598343 0.0042250305 0.09393627 -0.051732488 0.11416539 0.008075794
-0.0873198 0.11421126 0.13028346 -0.028621478 -0.033076487 -0.13013603 0.03195012 0.076060645
-0.015042647 0.021055229 -0.02715396 0.12643509 0.107372865 0.13431807 0.049720988 0.018274985
0.006845661 -0.13302918 -0.06337528 0.028716898 -0.094695166 0.1687597 -0.056242693 0.049129758
-0.04803394 -0.073775925 -0.0013163112 -0.09846331 -0.13288845 -0.11958928 0.123167455 0.07462123
-0.13455409 0.04171222 -0.10955284 0.022264991 0.08228949 -0.00090957247 0.08925403 0.017277857
0.0074228835 -0.07198294 -0.019883705 -0.026902314 -0.19464737 -0.20312083 -0.21318722 -0.16871677
0.012315498 -0.041107055 -0.14182241 0.08676407 0.03822286 -0.00035222337 -0.09793751 -0.19863048
-0.09203351 -0.15145004 -0.11539677 -0.09281347 -0.09421561 0.05373984 0.012605422 0.008072863
-0.07177321 -0.020218767 0.058866203 0.10925334 0.11873961 0.13094361 0.15026592 -0.07597254

conv1.bias f4 [16]
00000000: f144 19be d91e 873d 5027 ac3d cbe3 71bd
00000010: c1eb bd3b 1715 14be 0d2a 1cbe f158 093e
00000020: 7273 85bc 86d7 9e3d bac4 a4bd a789 a63d
00000030: 3386 8dbd d480 08be 9565 093c 0e65 b0bd
-0.14967705 0.065976806 0.08405936 -0.05905513 0.0057959263 -0.1446117 -0.15250416 0.13412835
-0.0162904 0.077559516 -0.08045335 0.08131724 -0.06910362 -0.13330394 0.008386035 -0.08613025

conv2.weight f4 [32, 16, 5, 5]
00000000: dc03 b43b 6b6e d4bc f80c 163d f28f 403d
00000010: 8ea9 233d 796d 85bd 0520 86bd 21ab 76bd
00000020: 9b8b 03bd 52a5 c03d 39cd 4fbb 762c 96bc
00000030: 10ab 1bbd 846b d8bc ae90 703d 536f cc3a
00000040: b6de 83bc ff7f ebba e5ed cab9 a6aa d73d
00000050: 397f a6bc 08c4 8fbd f70c ecbc 49ff a93d
00000060: c91d f23d 8010 973c 5a95 423d 69ab 403d
00000070: b21b 14bc e4cc 993d bad4 eebb 18e4 c539
00000080: 160a e23c ef5d 0c3d f08a 52bd fa76 eebd
00000090: e5e8 a3bd 1875 0fbc 80da 9abc 82de fb3a
000000a0: 98b4 2bbd 442b b0bd d71a 593c 784d 94bc
000000b0: f5da b8bd 4934 6bbd 3425 a5bd 5f4c ffbc
000000c0: 4e6d 7639 9faa 28bd 5e69 47bd fdba 90bd
000000d0: 77aa a4bc aa83 9bbc 53ab b5bc d95c c5bd
000000e0: d7ad 98bd 75b8 49bc 835b b0bc 49a0 d0bb
000000f0: 1271 4fbd 349a 17bd 595c 3ebd 2276 543d
00000100: feba b9bc ead2 7cbd 4a4c d0bc 5bd4 623b
00000110: 84e4 4e3d 0247 153d 4b5b 98b9 ab5d 96bb
00000120: b17f abbc ddf7 2c3d 67dd 90bb 9f4b 90bb
00000130: 8476 2dbd 37cc 953d c5d5 073d 8161 ee3c
00000140: ef2f e83c f109 383a 693d 133d 441d 9bbc
00000150: 435e c1bc f746 d5bc bced 443c 79d2 27bd
00000160: 91b4 133d 5409 c3bc 0249 a33c 0f60 98bc
00000170: 17de 9eba 9ccc 263d 5783 d03c c99b cfbc
00000180: 0612 243d b5b8 523c e393 e03c 5485 0a3c
00000190: 5043 c8bc 4c6c 85bc 5206 06bd d7cd 0a3d
000001a0: 7407 a13c 5fd5 4c3d 590a 3f3d bcff 25bd
000001b0: 2b82 1bbb f698 3bbb 686a 273c 0b68 30bd
000001c0: 10d8 58bd 9e02 bf3c d036 a3bb 20ea 623d
000001d0: 6f4f 32bd df4d 83ba 2449 acbc 5881 0dbc
000001e0: d297 6e3d 69dd 8ebd 21ca 2939 8b45 95bd
000001f0: 1f5e cd3b 7989 553d 4ab1 26bd 31a4 f0bc
00000200: 6be3 813c dbac 2b3d bc3e a3bb f80d e2bc
00000210: 20c8 113d ba60 583d ce3f 4d3c f11c e73c
00000220: 31ba 623d 5f6f 803d 98a2 ffb8 6ec3 503d
00000230: 367a 06bd f500 30bb 85bd 2f3c 7370 1a3c
00000240: b760 d13d 8fd8 38bc a436 423d 572d 4b3d
00000250: 0095 7f3d 8b12 293e 73cc c8bc 7a74 54bc
00000260: 5d76 41bd 5334 82bc 4372 913d 5c40 d4bb
00000270: 9a1f 92bd ab3e 8fbb 35b2 9d3d ca36 2b3d
00000280: e6e9 503d b486 81bd d12f 433c b14a 973c
00000290: 9ff8 4d3d 8cb0 eebc ae33 913c 40c4 143d
000002a0: 5f74 ab3d 04d1 293d c0f0 f6bc 4e2c 88bc
000002b0: 1c0f 893c f10b 9c3d a96a 5dbb c4cc 213d
000002c0: 4354 393d b059 0d3d 74f7 82bb 59c4 bc3c
000002d0: d351 113d 2dd3 86bc 54a6 34bd 140a 8fbd
000002e0: 945c 29bd cdaf 3ebd da19 82bd 0517 bdbb
000002f0: 17cc 56bd 5a27 13bd 1a56 8bbd 90b2 8cbd
00000300: 28f6 163c 2972 10bd 2df4 25bd 3185 bebd
00000310: bf7f 21bd 196a 013d 2a3a 9a3d 9c01 813d
00000320: e2d8 89bc 98f1 4cbc e2d7 48bd a44d 96bd
00000330: 20b3 a2bd 4fee 863b 3987 78bd c124 4fbc
00000340: 49fc 7fbd bfb8 6fba 7fbb f23c 50be 14bd
00000350: 114b 53bd 3e1a babd 228a 2bbd 04ce b4bc
00000360: 1b26 94bd 484e 94bb b721 74bc e847 7a3b
00000370: e8c8 f73c 9ecf 1dbd c362 29bd 6e48 6d3d
00000380: b56c 173d 1dde ffbc 7c5d e0bc 8aeb 4b3d
00000390: 5ac7 813d 56e2 6b3c 3ce4 993a 79d9 52ba
000003a0: 8f3e 463d 6eb3 d6bc 2a6b cebc 1fc3 5ebd
000003b0: c808 dbbc 874a 853b df2b ac3b e5eb 39bd
000003c0: 1b82 d0bd 3d36 00bd df94 afbc d50f 7bbc
000003d0: 1f93 4dbd 25ca bbbd 1baa bebc 0f14 99bd
000003e0: b3e0 38bd b148 89bd a6f5 883d 8291 353d
000003f0: 606f cc3c 60c0 8e3d b504 8a3d 575d 693d
0.005493624 -0.025931558 0.03663346 0.047012277 0.03995662 -0.06515021 -0.06549076 -0.060221795
-0.03211556 0.09406532 -0.0031708016 -0.018331748 -0.038004935 -0.026418455 0.058731727 0.0015597142
-0.016097408 -0.0017967223 -0.00038705688 0.105305955 -0.020324336 -0.07019812 -0.028814776 0.08300645
0.11822087 0.018440485 0.047505714 0.04703847 -0.009039806 0.07509783 -0.0072885426 0.0003774471
0.0275927 0.03426927 -0.051402032 -0.11643787 -0.080034055 -0.008755945 -0.018903017 0.0019216093
-0.041920274 -0.08602002 0.013251028 -0.018103346 -0.09026138 -0.05742291 -0.080637366 -0.031164346
0.00023501107 -0.041178342 -0.04868447 -0.07066915 -0.020100815 -0.01898368 -0.02217642 -0.0963685
-0.07455032 -0.012312044 -0.021528011 -0.0063667637 -0.05064494 -0.037012294 -0.04647479 0.051870473
-0.022672173 -0.06172458 -0.025427002 0.0034611437 0.0505109 0.03644467 -0.00029059718 -0.004588803
-0.020934911 0.04222857 -0.0044209245 -0.004403546 -0.042349353 0.073143415 0.03316285 0.029099228
0.028343169 0.00070205244 0.035947237 -0.018934853 -0.023604518 -0.026034815 0.012019571 -0.040972207
0.036060873 -0.023808159 0.019932274 -0.018600492 -0.0012120631 0.040722474 0.025453253 -0.025342839
0.04005625 0.01286142 0.027414268 0.008454639 -0.02444616 -0.016286992 -0.03272087 0.03388771
0.019656874 0.050008174 0.046640728 -0.04052709 -0.002372871 -0.0028625107 0.01021824 -0.043067973
-0.05294043 0.023316678 -0.0049808994 0.05539906 -0.043532785 -0.0010017714 -0.02103097 -0.008636795
0.058250256 -0.069758244 0.00016192395 -0.07288655 0.0062673236 0.052133057 -0.04069642 -0.029375168
0.015855512 0.041912895 -0.0049818438 -0.027594551 0.035591245 0.05282662 0.012527419 0.028212043
0.055353347 0.06271242 -0.00012189633 0.050967626 -0.032831393 -0.002685604 0.010726337 0.009426224
0.10223525 -0.0112821 0.04741539 0.049603786 0.062397957 0.1651098 -0.024511551 -0.012967223
-0.04723202 -0.01589409 0.07101872 -0.006477399 -0.07134934 -0.0043714843 0.07700006 0.041800298
0.051004313 -0.06324521 0.011913256 0.018468233 0.05028593 -0.029136918 0.017724838 0.03631997
0.083718054 0.0414591 -0.030144095 -0.016622689 0.016730838 0.07619465 -0.0033785498 0.03950192
0.045246374 0.03450936 -0.003996784 0.023042845 0.035478424 -0.016458118 -0.044103935 -0.06984344
-0.041348055 -0.046554375 -0.06352587 -0.0057705664 -0.05244073 -0.0359262 -0.06803532 -0.068699956
0.009213962 -0.03526512 -0.040516067 -0.09302748 -0.03942847 0.031595323 0.07530625 0.06299135
-0.01682705 -0.012508772 -0.049034007 -0.073390275 -0.07944322 0.004117764 -0.060675833 -0.01264304
-0.062496457 -0.0009144656 0.02963042 -0.03631431 -0.05158526 -0.090870366 -0.04187978 -0.022070892
-0.072338305 -0.0045259334 -0.014900616 0.0038189832 0.030247167 -0.038528077 -0.041353952 0.057930402
0.036968905 -0.031233842 -0.027388327 0.049785174 0.063368514 0.014397224 0.0011740993 -0.000804327
0.048399504 -0.026208606 -0.025197584 -0.0543853 -0.026737586 0.0040677222 0.0052542533 -0.045390982
-0.10181066 -0.031301726 -0.021433292 -0.015323599 -0.050189134 -0.091694154 -0.023274472 -0.07474529
-0.045136165 -0.06703318 0.06687479 0.04432822 0.024955451 0.06970286 0.06739179 0.05697378

conv2.bias f4 [32]
00000000: aa8b ebbd e225 58bd 6d3a 953c 7bae b3bd
00000010: bbc9 a0bd 275a 5cbd 5916 7fbd 6a2b 173c
00000020: ba35 403d 1b80 333d 5c13 a0bd 62f4 8fbc
00000030: d0f8 29bc 26a4 ae3c 8692 8fbd 24f1 a7bc
00000040: f965 1a3c 7572 cebc cfa1 7fbc 87a9 3abc
00000050: 1d32 dbbd 83f5 3cbc b5ae dfbd c709 71bd
00000060: fddd 82bd fafc ab3c ef7e cf3c 91be 30bd
00000070: 9be8 59bd 136f 20bd ad65 6cbc 9132 9cbc
-0.11501248 -0.052770503 0.018216336 -0.08773514 -0.07850977 -0.053796913 -0.06227717 0.009226659
0.046926238 0.043823343 -0.078161925 -0.017572585 -0.010374263 0.021318506 -0.07010369 -0.020500727
0.009423726 -0.025201062 -0.015602543 -0.0113929575 -0.10702918 -0.011533144 -0.109219946 -0.058847215
-0.06389997 0.020994652 0.025329081 -0.04315049 -0.053200345 -0.03916843 -0.014428538 -0.01906708

conv3.weight f4 [64, 32, 5, 5]
00000000: 6e3c cdbc f03f 423d 2729 973d 7e7c 5f3b
00000010: 1c5e 9cbc 559b 773a 35b8 ca3c 3d1d 1b3d
00000020: fac2 893d 5913 693c 9301 883d 08ae f53c
00000030: d150 b03d f217 393a e73e 033d 7505 433d
00000040: 8c47 483d c036 1b3d 658e 0d3d 82d2 11bd
00000050: 172e fcbb b46a c13c 4aea 6f3d 7ffc 923d
00000060: 56ef 2d3d aef6 9abd 6791 c4bd ce51 e0bd
00000070: 6de2 fdbd cab8 cd3c fe3a 44bc eb2c c8bd
00000080: 3840 2bbd 4146 97bd f2bb ae3d 822d 8fbd
00000090: bf6d 02be c061 603c 47a3 5dbc a415 893d
000000a0: e2e4 14bd 819d c7bd 5dbf 3bbd 28be 00be
000000b0: 47d4 11bc ff16 713c 8b93 b4bd 630e 04bd
000000c0: 276f 20bd 0dd6 b9bc 21f8 283d 2657 b3bc
000000d0: 8c85 52bd 4614 443b c834 33bc 51bd 24bc
000000e0: cdbb 03bd b6c0 15bd 5442 5abd 04fa 74bd
000000f0: fe90 883d 99d7 1d3d 0376 0abc e7ee 343d
00000100: 80ed 003d 7379 2c3d f94f 0e3c 1e3d a63b
00000110: a870 093d 521c 53bb 3945 af3c ac29 c139
00000120: d0ab 423d a122 e93c 93aa 66bc c043 c5bd
00000130: 19ac d6bc 4fc8 4ebc 7deb 253e 1d3b 633e
00000140: 51af 4fbd 0fd5 36bc bba2 8e3d 8514 31bd
00000150: d739 d13c 24bb 9bbd 6af4 85bc 13bd e03d
00000160: 7cb3 cabc 7eae b2bc 12c0 e9bc 7261 c23c
00000170: 5168 3c3d ac8a 363d e97a b4bb a484 9fbd
00000180: 1698 4abd dbc8 b63d b759 06bd 4ab3 b5bd
00000190: 797b ebbb 8b90 0f3b d3e0 f9bb b159 79bd
000001a0: c8dd 43bc a0e5 f93c cea3 233d d070 07bd
000001b0: 2e92 e3bd 6a35 77bc eb24 cc3c c0e5 04bd
000001c0: c94d 663d 860f e3bc 6cf2 e9bc 15f6 4b3d
000001d0: fb5d 1b3d 17d7 303c 574a 713d 726b c1bd
000001e0: 9be2 6d3d e420 c63c 639b 283d d23e d43c
000001f0: 1219 3e3d 078c 45bd 3ba2 59bd 98df 0fbd
00000200: c6d0 9abd eefb 22bc 9e75 64bd 1956 49bd
00000210: f0ad 943c 643e 73bb 1ec4 d63d e15c 763c
00000220: e86e 0bbd 2311 a9bd 1a2e 26bd 579a 723d
00000230: f614 95bd 27a5 c3bd 3889 f73c 5ab0 4e3b
00000240: f977 ec3d fd98 353d 15b1 2a3d 865b b13d
00000250: da34 433c 55e3 fb3c 3db8 eb3b dc91 253c
00000260: eedc 433c 947d e0bd 9a54 ad3d 0d1b 8ebd
00000270: b466 a1bd 5104 97bd 14dd 38bd 6adb a5bd
00000280: 6255 bcbc b37d 90bc 7752 923c 19cc b6bc
00000290: 76fe c6bd 1b1a 003d ffef b1bc d874 e43c
000002a0: 85fc 9abd 3fc4 b2bc 2437 aa3b aaa1 d0bc
000002b0: ef13 7dbc 7e5a a7bd bc8c 13be 5502 d53c
000002c0: e7dd 3a3d 9883 143d 7346 4d3d bbcf bebc
000002d0: a5d7 cfbc aa3c cabc 145f b0bd bc10 18be
000002e0: ce46 abbd 97e7 aabd d446 b5bd 5af7 01be
000002f0: a290 f7ba c37b 82bd cfb3 b3bd 4f07 5fbd
00000300: d6af 97bd 1076 0fbd df5e 6ebd 6561 283d
00000310: b535 97bc 887d 99bc 80a2 c33c e824 ccbd
00000320: 0cff 693d a2fc 333d cb73 ccbc 83c5 8b3b
00000330: 8fb2 b43b 8131 2a3d d36e 353d 6b02 3e3b
00000340: 72e5 603c 7548 dbbc e567 193c bbef 173d
00000350: 24fd 0138 788d 923c be0d cfbc 85b1 2b3d
00000360: 5f40 8a3c a818 133d 04a9 673c caba 21bd
00000370: 9276 ba3c b76f d93a 30e8 f33c 48a2 8bbc
00000380: 0ef9 913c 4433 593d 5cfd ca3c e958 18bc
00000390: 7c43 07bd adf2 a8bc dbc5 193c 7bad d03b
000003a0: 5755 8fbc 8432 7e3b 01a8 0a3c 38ac 6ebc
000003b0: 0b7c d5bd c959 3fbd b711 1b3d 1b60 af3b
000003c0: b250 0fbd 5d89 4bbc 2ff5 033d 7001 523d
000003d0: 43b0 4a3d bd2a 01bd bd67 113d 3dc0 2d3d
000003e0: 6220 92bb 6b66 893b c9fe 18be 5a2b 91bd
000003f0: 0345 8abd 723d 16bd 5989 c2bc 25c9 b83c
-0.02505323 0.047424257 0.07380896 0.0034101303 -0.019087844 0.00094454485 0.02474604 0.03786968
0.06726642 0.014225804 0.06640925 0.029990211 0.086091645 0.0007060758 0.03204241 0.047612626
0.048896357 0.03789401 0.034559626 -0.035601147 -0.007695924 0.02361045 0.058573045 0.07177066
0.042464577 -0.07566582 -0.09598046 -0.10953103 -0.12396703 0.025112528 -0.011976955 -0.097741924
-0.04180929 -0.07386447 0.085319415 -0.06991102 -0.12737177 0.01369518 -0.013527698 0.06693581
-0.036351092 -0.09746838 -0.045836795 -0.12572539 -0.0089007085 0.014714955 -0.08817204 -0.032240283
-0.039168503 -0.022685075 0.04125226 -0.021892142 -0.05139689 0.002991931 -0.010937877 -0.010054902
-0.032161523 -0.036560737 -0.05328591 -0.059808746 0.0666828 0.038535688 -0.008450988 0.044173148
0.031476498 0.04210801 0.008686059 0.0050732037 0.033554703 -0.0032212925 0.021395313 0.00036842877
0.047527134 0.028458895 -0.014078754 -0.09632063 -0.02620511 -0.0126209995 0.16203113 0.22190519
-0.050704304 -0.011159196 0.06964632 -0.04323246 0.025540275 -0.076040536 -0.016351897 0.10973563
-0.024743788 -0.02181172 -0.02853397 0.023728106 0.04599792 0.04456584 -0.005507816 -0.07788971
-0.049461447 0.08925029 -0.032800402 -0.08872087 -0.00718635 0.0021906223 -0.007625678 -0.060876552
-0.011954732 0.030505002 0.03995114 -0.03306657 -0.11111866 -0.0150884185 0.024919948 -0.03244567
0.056226525 -0.027717363 -0.028557979 0.04979523 0.037931424 0.010793469 0.058908787 -0.09444322
0.058077436 0.024185605 0.041163813 0.025908861 0.046410628 -0.048229244 -0.05313323 -0.035125345
-0.075593516 -0.00994776 -0.05577623 -0.049154375 0.018149346 -0.0037116045 0.10486625 0.0150367925
-0.034041315 -0.08255222 -0.04057131 0.05922922 -0.072793886 -0.09552985 0.030216798 0.003153822
0.115463205 0.044335354 0.041672785 0.08660035 0.011914456 0.030748049 0.007193594 0.010105576
0.011954529 -0.10961452 0.08463402 -0.06938753 -0.07880917 -0.0737387 -0.04513271 -0.080984905
-0.022989932 -0.017638063 0.017861588 -0.022314118 -0.09716503 0.031274896 -0.021720884 0.027887747
-0.075676955 -0.021822093 0.0051945616 -0.025467712 -0.015446647 -0.08171557 -0.14409155 0.026002089
0.04562178 0.03625831 0.050116014 -0.023292413 -0.025371382 -0.02468713 -0.08611885 -0.14850134
-0.08363114 -0.083449535 -0.088514 -0.12692013 -0.0018887708 -0.06371262 -0.0877453 -0.05445033
-0.07406585 -0.035024703 -0.058195945 0.041108508 -0.018458227 -0.018736616 0.023881197 -0.09967977
0.057127997 0.0439421 -0.024957558 0.0042654886 0.00551445 0.041551117 0.044295143 0.002899314
0.013726579 -0.026767949 0.009363149 0.03709386 3.0991752e-05 0.017889723 -0.025275107 0.041917343
0.016876398 0.035912186 0.014139418 -0.039484777 0.022761617 0.001658908 0.029773802 -0.017045155
0.017818954 0.053027406 0.024779014 -0.009298542 -0.033023342 -0.02062353 0.009385551 0.0063683367
-0.017496748 0.0038787434 0.008462907 -0.014567427 -0.1042405 -0.046716485 0.03785869 0.005352033
-0.034989066 -0.012422887 0.032216247 0.051270902 0.049484503 -0.0315349 0.035499323 0.04241966
-0.0044594267 0.0041931174 -0.14940943 -0.07088347 -0.06751444 -0.036679693 -0.023747133 0.02255685

conv3.bias f4 [64]
00000000: c381 523d 364f 89bc ba3e a639 584a c03c
00000010: 6ab3 70bc 386a 6b3c 7d68 973b 3b4c 043d
00000020: 4b71 bc3b 4f17 de3a 365e 923c 00eb 09bd
00000030: 8adb bc3c d784 acbd e0b9 56bd 1544 babd
00000040: ccf1 07bd fbe6 32bd d093 b8bb 3337 a63c
00000050: 62d2 863c bb55 debc c5dc b2bd a4b2 0ebd
00000060: ce37 9ebd 583a 3cbd d2d4 6d3c 5473 84bd
00000070: 2cd7 95bd 31ab 03bd 5cc2 99bc 23c4 d8ba
00000080: bbde 47bd eef3 60bd 0297 dabc 2eb1 49bc
00000090: 579c 34bb c5eb d7bd 58ea 35bc bcb4 0a3c
000000a0: c38e 71bd 3cd8 983d 5932 c8bd 8ff0 103d
000000b0: 8d2a 183d 0f4c 16bd 6bc5 85bd 73aa d2bc
000000c0: e4d3 a5bc 5edf 6a3d e671 98bd 731e 693d
000000d0: ba15 90bc e132 93bd cdbc b7bd 3cbd 15bd
000000e0: c3a3 d9bc 8c2e a0bc 7289 59bd 4607 a03d
000000f0: faf6 863d efa7 653d adf6 87bd d408 03bd
0.05139328 -0.016761404 0.00031708722 0.02347295 -0.014691213 0.014368586 0.0046206103 0.03229926
0.0057508103 0.0016944202 0.017867189 -0.03367138 0.023053903 -0.08423775 -0.052423358 -0.09095017
-0.03318958 -0.04367731 -0.005632855 0.020289993 0.01645774 -0.027140489 -0.08733515 -0.034838334
-0.07725488 -0.04595408 0.014516072 -0.064673096 -0.073164314 -0.032145683 -0.018769436 -0.0016537945
-0.048796397 -0.05492013 -0.026683334 -0.012310309 -0.0027559006 -0.10543016 -0.011103235 0.008465942
-0.05897404 0.074631184 -0.09775228 0.035385665 0.037149955 -0.03669363 -0.06531795 -0.025716042
-0.020242639 0.057341926 -0.074435994 0.056913804 -0.017588485 -0.07187439 -0.08971558 -0.03655742
-0.026567345 -0.019553445 -0.053109594 0.07813887 0.06590076 0.056068357 -0.066388465 -0.03199084

fc1.weight f4 [256, 64]
00000000: 5f8b f93d 1ad8 243c bdf0 6e3d 42d8 6b3d
00000010: f41e 993c 7c61 3abd 8244 b53d 8713 6fbd
00000020: 7e85 2b3d 63a1 a33c 8ed3 0e3e 7c50 083e
00000030: ec4e b6bd ce0c b43d c8da 39bd c16f f6bb
00000040: d959 053e 8991 bd3d a769 db3d 84f4 59bd
00000050: 84b0 52bd 37b5 ce3d 00a4 18bd a668 34be
00000060: d59d 64bd b726 c33d f2bc 5abd 3a96 45bd
00000070: c0dc 0d3e 9c28 47bb e639 fcbc d0c7 c73d
00000080: 8733 9fbd 7a5d 633d dd49 c23d ac63 34bd
00000090: e3d7 c73c b0a3 a8bd 29b0 cf3b 6691 6d3d
000000a0: df8e b3bc 8076 c93d 73ca 8c3d 2a59 56bd
000000b0: 0dd0 103d 84b3 23bd 6eac 663c 2c93 dcbc
000000c0: 89ac a6bc 496d 8e3d 0c16 d93d c5f1 673d
000000d0: 8e43 883c dcb3 e23c f9d0 ca3b 0fd3 94bb
000000e0: 5eed c93d 476d b83d 518a 753d 4bc9 3f3d
000000f0: d01a 9c3d 8ba8 9abd 1362 1d3e d58d 0ebd
00000100: 75fd 053e 24a7 163e a2d7 f43d afe1 f1bd
00000110: 4137 b33d 2504 f8bb 4f0e a1bd bc57 20bc
00000120: 00f9 8d3d 207a 70bd d391 15bd 5d7e f43d
00000130: 313f c13c e8e0 023d 94d0 9fbc 010b 20bd
00000140: 4d5d 93ba 0cbf 9abc 79f7 f2bd 82d4 afbd
00000150: c07c 4d3c 7acf 11bc 26bc 99bd 1bd4 063e
00000160: 21b9 ba3d 13c4 b7bd 5c1e c53c fd73 b63d
00000170: 7e8d c13d 7f0e b13d a634 15be 7d85 633d
00000180: 5a0d f03c d395 d63c bee3 a93d 276c fdbc
00000190: 8846 223e 402d bb3d ea7a c4bd c019 ecbd
000001a0: a049 cf3d 5d01 3fbd ecc0 3d3d a0f2 683d
000001b0: e92a c0bd a21b c03c 9e02 a73d f9fa 223d
000001c0: e025 013d 8941 a33d b860 eebd ceed 0ebe
000001d0: 781c 95bc b739 95bd d602 97bc fbc1 ca3c
000001e0: 1a01 1a3d f5c9 643d 672b 00bd 6914 e6bd
000001f0: 5bdb 0b3d bf76 c539 2b46 d23e 82dc bebd
00000200: fae1 15bd 6a44 fb3d cd31 1fbe 084a 0f3d
00000210: c4df 973d dd31 4bbe 89d6 e5bd 3c11 1abe
00000220: c622 d4bd 515a 25be 6c1e cfbd 1988 c3bc
00000230: e7d8 5fbd 9f71 043e 7f84 d2bd 79dd 503e
00000240: 9630 f3bd c016 6f3e 4b44 bdbd c3e3 313d
00000250: ea38 29be 1eec 483d ed69 063d 287d cb3d
00000260: 297f 46bd 353e 06be 37d7 12bd 3cbb 523e
00000270: e363 2e3e 8363 513e 1009 b9bd 8a5c f43d
00000280: f38d 0e3d c106 973c 253c f93c 7b55 a3be
00000290: 4b5b e03d 9465 043d f783 92b9 fd65 38be
000002a0: fb10 f93c 5da8 f83c b18b 973c 13b9 053d
000002b0: 611c adbd 6e77 0d3e 1f9e 7f3c ce83 e8bd
000002c0: 74f2 eeb9 93c4 1abe 4a96 883d cb62 babd
000002d0: 0a74 923d 2b7f 6a3d 870f 2cbd 0232 2b3e
000002e0: b017 b939 0abd 9bbd 2411 6a3e 8d40 02be
000002f0: 0957 9e3d 3468 b33d 2fcd 803e aa61 a2bd
00000300: 2e47 573c 80b2 9bbd 1f67 cabd f786 be3d
00000310: 5dee 473d 9023 eebd 809d 5e3d 04b1 f8bd
00000320: 9836 e7bd 677a 813d a696 f93c 76d3 0abd
00000330: c16d 8abc c9b1 0e3d 9bcc 8e3d 1423 303d
00000340: 83d8 abbd ae41 8cbc b622 13bd 5f19 7abd
00000350: 9f42 0c3d f8c8 f33d 86d8 613c b21e a8bb
00000360: 17d3 90bc 8d6d 25bd 7214 c9bc cfa6 143d
00000370: 3173 ebbd 4e71 943d 9952 f3bd 0b36 013d
00000380: 8c75 173d 294d dbbd c45a eabd 6ee9 be3d
00000390: 93b4 9b3c 2f45 abbd 5407 b7bd 473b 7dbd
000003a0: a10a b33d a2f2 0cbc ea27 aabd c5b8 9abd
000003b0: 41c1 a93d 4807 80bb ef3e 833d 1188 f53d
000003c0: b3da f0bd 84f8 c83d 0862 3f3d 57a5 c03c
000003d0: a63a b2bd 8226 ab3d 09e7 8abc a819 2fbc
000003e0: e7ed 83bd a732 d63d 92a7 f43c 2dff 1ebd
000003f0: 1d58 ecbd adb5 70bc dd14 743d b15a b0bd
0.12184786 0.010061288 0.058335055 0.057579286 0.018691517 -0.045503125 0.088509575 -0.058368232
0.041875355 0.019974416 0.13947889 0.13311952 -0.08901772 0.08791505 -0.04537466 -0.0075206463
0.13022555 0.09256274 0.10713511 -0.053211704 -0.05143787 0.10093158 -0.037265778 -0.17618045
-0.055814583 0.09528869 -0.05340285 -0.04823897 0.1385374 -0.0030389195 -0.030789327 0.09754908
-0.077735 0.055509068 0.094867446 -0.044040367 0.024394935 -0.08234346 0.0063381386 0.05799999
-0.021918712 0.09837055 0.068745516 -0.052331127 0.035354663 -0.03996612 0.014079196 -0.026925646
-0.020345943 0.06954438 0.10599908 0.056627054 0.016633775 0.027673654 0.0061894623 -0.0045417617
0.09859727 0.09005218 0.059946362 0.046822827 0.076223016 -0.07551678 0.15369444 -0.03480323
0.13084967 0.14712197 0.11955191 -0.11810624 0.08750773 -0.0075688534 -0.07864057 -0.0097865425
0.069322586 -0.058710217 -0.036516022 0.119381644 0.023589702 0.03195277 -0.019508637 -0.039072994
-0.0011243016 -0.018889926 -0.11863608 -0.085854545 0.01254195 -0.008899564 -0.075065896 0.1316685
0.09117342 -0.08972945 0.024062328 0.08908842 0.094508156 0.08645343 -0.14570865 0.055547226
0.029303242 0.026194489 0.082953915 -0.03093536 0.15847218 0.0913949 -0.095937565 -0.11528349
0.10121465 -0.04663216 0.046326563 0.05687201 -0.093831845 0.023450676 0.08154796 0.039790127
0.03153026 0.07971484 -0.116395414 -0.13957903 -0.018202052 -0.07286399 -0.01843397 0.0247507
0.037598707 0.055856664 -0.03129139 -0.11234362 0.03414474 0.0003766324 0.4106916 -0.09319402
-0.03659246 0.12268908 -0.15546341 0.03498271 0.07415727 -0.1984324 -0.1122256 -0.15045637
-0.10358195 -0.16147734 -0.101132244 -0.023868607 -0.054650214 0.12933968 -0.10279178 0.20396985
-0.118745014 0.23348522 -0.092415415 0.0434301 -0.16525617 0.049053304 0.032815862 0.09935981
-0.048461113 -0.13109668 -0.035849776 0.20579237 0.17030291 0.20448117 -0.09034932 0.11931713
0.034803342 0.018435838 0.030424187 -0.31901154 0.10954913 0.032323435 -0.00027945612 -0.18007655
0.030403605 0.03035372 0.018499227 0.032647204 -0.084526785 0.1381509 0.015601664 -0.11353265
-0.0004557554 -0.1511405 0.0666929 -0.091008745 0.07151039 0.057250183 -0.042006996 0.16718295
0.00035303598 -0.07604416 0.22858101 -0.12719937 0.077314444 0.087601095 0.25156543 -0.07928784
0.013139529 -0.076024055 -0.0988295 0.09303086 0.048811305 -0.11627877 0.054349422 -0.12143138
-0.1128971 0.063221745 0.030467343 -0.03389307 -0.016898038 0.034837518 0.06972619 0.043002203
-0.08390906 -0.017121162 -0.035921775 -0.061059352 0.034243222 0.11903566 0.013784533 -0.0051306123
-0.01767878 -0.04038768 -0.024545882 0.036291894 -0.114965804 0.07248174 -0.11880989 0.03154568
0.036977336 -0.107080765 -0.114430934 0.09321867 0.019007003 -0.08362805 -0.089369446 -0.06182411
0.08742262 -0.00860277 -0.08308394 -0.07554773 0.082888134 -0.003907118 0.06408488 0.11988843
-0.117604636 0.098130256 0.04672435 0.02351634 -0.087025926 0.08356954 -0.01695587 -0.010687269
-0.06441861 0.1045888 0.02986506 -0.038817573 -0.11540244 -0.014691752 0.05959021 -0.08611048

fc1.bias f4 [256]
00000000: 003f a03d bdd0 d5bd b47a e43d e176 f23d
00000010: 0c7b 613d fc25 ddbd 655a cbbb 88ec d8bc
00000020: fd65 283e c98c bd3d c84a 9f3d 8069 5bbd
00000030: f8dd d2bc ac00 943c bc1c 4cbd 96b2 15bb
00000040: 2e23 a4bd 726a 573d 254a 80bd 8251 8d3c
00000050: 8a59 dc3d 373e f13c c68a 8fbd 12ca a8bd
00000060: dbb6 763c 7017 92bd 01b8 193d 99a2 1e3d
00000070: 4fe8 613d 780e 05bc 9784 b03d 38f7 e23d
00000080: 61fe 24be ba82 a3bd b8d4 bebc 0694 c63d
00000090: e91b 95bb 82bb 0fbe 7061 10bc 71b3 af3d
000000a0: a2ba 05bd c834 dabc 2d1c 1a3c 71a3 09bd
000000b0: f2a5 a7bb 6358 ccbd f856 4cbc 72dc adbd
000000c0: 354b 873d db94 cc3b 90a8 7cbb e50d 033e
000000d0: 9bc9 11bd 5deb bebd aca3 ae3c cdcb c4bd
000000e0: facb ecbb d5a7 bf3d 69ae 81bd 3823 bdbd
000000f0: f3c6 d43d 293c e93b 4bfb bb3d 0a2f 8bbd
00000100: 03af 1f3d 93b3 d53d 78f6 53bd 725a 323d
00000110: 1c39 cc3d a6b8 27bc 71a7 67bc 7cf2 113d
00000120: d120 a73d aff6 473c 0d02 19bd 7df9 8bbd
00000130: be6d 7e3d 1868 2ebd b589 863d 156a bd3b
00000140: 39f5 84bd f9da 923d 3c7e 2ebd 7b9f 833d
00000150: 80ed 83bd 8f99 82bd cf8a 9bbd 836f e4bc
00000160: 8125 883c c543 c23d df85 bfbc 678d 86bd
00000170: e551 09bd 47fd b7bc 9a34 0bbd c81d d7bd
00000180: 976c b53d 93ee d43d 15fa e53d 25d8 793d
00000190: 9d91 81bd 2022 d53d 7034 babd 3526 163e
000001a0: 5850 443d 5c7f d53d 0445 b43d 7c41 233d
000001b0: 4570 023d 015b 083e b7f1 c33d 373e 42bc
000001c0: 4649 a03c d560 55bd ed9b 083c 7958 db3c
000001d0: b9ab f53d 836f 003d 01d6 91bc f4c7 cabd
000001e0: e8d6 203e acd1 993b 8461 b0bb b4c5 a23d
000001f0: 51df a43d 67d2 28bb 3f2e 553d 7de1 db3d
00000200: 63e5 213d b9af 30bc 080a be3d 9ca6 fc3d
00000210: 469e 0fbd fb72 6e3b 53d0 ddbd aae2 773d
00000220: e92d 57bd 8677 ebbd 6416 423d 5f3d ab3d
00000230: 45d0 63bd 62f9 ecbd 0f04 36bd cd38 8a3d
00000240: ad8a 813d bd8f 8a3c f7c7 68bd 986a ffbd
00000250: 9080 cebc 9e4d 6ebd 4c7d 913d 5450 b0bc
00000260: 3101 fbbc 3a29 b7bd 25e9 37bd 29b6 a5bc
00000270: 2fa5 02be ccc0 f1bd 00a1 43bd 3fc1 363c
00000280: 2a5f 84bd cd1d 913d f953 9e3d 09be b9b7
00000290: 1070 e0bd 8ffb 803d fb13 95bc 5c0f b93d
000002a0: 4cf3 d93c d73c ef3d aed9 aabb a461 0abe
000002b0: 2707 b1bd 91dd d6bd 2a6b 3abd 2722 8bbd
000002c0: 66ed 133d bb5b e8bd f087 fabc 5537 763d
000002d0: ff3d 993b c2ef 46bb be53 c8bd 7ce4 c5bd
000002e0: ff74 12be 8a75 18bc 8af9 083c a0d7 843d
000002f0: 769f 9b3d 9559 543c 3652 953d 761a a83d
00000300: cbdd e73c b0ad 973d 9036 2bbc 1bba 90bd
00000310: 5665 963d 467e e2bd 1595 bfbd ebd8 963d
00000320: 5435 5cbd 2522 863d 93fc fabd c4aa 063e
00000330: bce4 1fbd 0a6b b53c ae1f 1a3d 6631 f93d
00000340: 44af a8bc 6c3c 99bc 519b a23d babf 903d
00000350: e2d6 ddbd f8f5 87bd 326a ac3b c0a5 83bd
00000360: f3e3 733b e7a1 8bbc 6035 353d ff0e 813c
00000370: 956b 203b b4dd ef3d d602 c6bd 9b12 e63d
00000380: 926c 713d 9d64 fe3d 9d94 30bd 8f5e 4dbd
00000390: 5fbd b13a a22a 1c3c b641 e83b 3460 523d
000003a0: d1a7 0b3e 6873 c43d 5b79 103e a9f1 e3bd
000003b0: ff15 ae3c 5657 91bd 6bd9 77bc 2238 803d
000003c0: 4d48 be3d 7992 e53d 79f7 b5bc b49d 193c
000003d0: 12cb 003e 3cdf b2bd 3620 933d 8816 eebc
000003e0: cd7d a43d 6804 ce3d 31b3 923d cac9 393c
000003f0: 33de 863d 907d 76bd ae29 1b3e ea07 4b3d
0.07824516 -0.10440204 0.11156216 0.118390806 0.055048987 -0.107982606 -0.006205844 -0.026479974
0.16445155 0.09255368 0.07777935 -0.05356741 -0.025740609 0.018066727 -0.04983209 -0.0022842041
-0.080145225 0.05259175 -0.06264142 0.01725078 0.10759266 0.029448612 -0.07008891 -0.08241667
0.015058245 -0.071333766 0.037528995 0.038729284 0.055153187 -0.008121125 0.086190395 0.110823095
-0.16112663 -0.079839185 -0.023294792 0.09696202 -0.0045504463 -0.14036372 -0.008812293 0.085791476
-0.03264869 -0.026636496 0.009406132 -0.033603135 -0.005116218 -0.09977796 -0.012471907 -0.08489312
0.066061415 0.006243331 -0.003855262 0.12798269 -0.035592657 -0.09322236 0.02131828 -0.096091844
-0.0072264643 0.09358183 -0.06332094 -0.09235233 0.10389509 0.0071177674 0.0917879 -0.06796081
0.038985264 0.10434642 -0.051748723 0.043543287 0.0997183 -0.010236895 -0.014139042 0.03563164
0.08160556 0.01220481 -0.03735547 -0.068346955 0.062116377 -0.04257974 0.06569234 0.005780468
-0.06492085 0.07170672 -0.042600855 0.06426903 -0.06441784 -0.06376945 -0.07594835 -0.027885204
0.016619446 0.09485582 -0.023379264 -0.06569939 -0.033525366 -0.02245964 -0.03398571 -0.10503727
0.088586025 0.10397067 0.1122934 0.060997147 -0.06326602 0.104068995 -0.09092033 0.14663012
0.047928184 0.104246825 0.08802226 0.039857373 0.03184535 0.13315965 0.09567588 -0.0118556535
0.01956619 -0.0520943 0.008337957 0.026775585 0.11995644 0.031356346 -0.01780224 -0.09901419
0.1570698 0.0046941843 -0.0053827185 0.07947865 0.08050407 -0.0025760175 0.052046057 0.10736368
0.0395254 -0.010784083 0.09279257 0.12336466 -0.03506305 0.0036384452 -0.1083075 0.060518898
-0.052534018 -0.11497407 0.047384635 0.08361315 -0.055618543 -0.115710035 -0.044437464 0.06749115
0.063252784 0.016914243 -0.056831326 -0.12471503 -0.025207788 -0.05817949 0.071039766 -0.021522678
-0.030640217 -0.0894341 -0.04490008 -0.020228462 -0.12758325 -0.11804351 -0.047760963 0.011154472
-0.064634636 0.07085762 0.0773086 -2.214221e-05 -0.10958874 0.06297981 -0.018198004 0.09036133
0.02660527 0.11681526 -0.0052139377 -0.1351381 -0.08643942 -0.10491479 -0.045512356 -0.067936234
0.036115073 -0.11345621 -0.030582398 0.060111362 0.00467658 -0.003035531 -0.097815976 -0.096627206
-0.14302443 -0.009305367 0.008360276 0.0648644 0.07598774 0.012960811 0.07291071 0.08208172
0.028304001 0.07406175 -0.01045002 -0.07066747 0.07343547 -0.11059241 -0.09354607 0.073655926
-0.053761795 0.06549481 -0.12255206 0.1315108 -0.039036497 0.022145767 0.03762787 0.12167625
-0.020591386 -0.01870557 0.079397805 0.07067819 -0.10832001 -0.06638712 0.005261683 -0.06428099
0.0037214726 -0.017044974 0.044240355 0.015754221 0.0024478186 0.117122084 -0.0966851 0.112340175
0.05894143 0.12421534 -0.04311048 -0.050139006 0.0013560465 0.009531649 0.0070879115 0.051361278
0.13638236 0.095923245 0.14108793 -0.111300774 0.021250723 -0.07096736 -0.01512752 0.062607065
0.09291134 0.11209578 -0.02221273 0.009375978 0.12577465 -0.08733985 0.07183878 -0.029063478
0.08031807 0.10059434 0.07163084 0.011339614 0.0658535 -0.06017834 0.15152618 0.049568094

fc2.weight f4 [3, 256]
00000000: f9c1 353d 22ba 59be 4927 b2be 538d ad3c
00000010: 6614 933e 5a02 213e a099 c53d dadd 563d
00000020: 8449 7fbb e7d5 f5bc 0e72 803d bac4 813d
00000030: 6d0c c83e b9ec 873d 9479 6bbd bb97 d8bd
00000040: 78d3 f3bc 3943 b93c f9e4 ecbb 589c c33d
00000050: be12 ad3b c7fa 083e c904 203d 086b 7cbc
00000060: 3b28 bc3d 9101 193d 2c43 e03e 149d f03c
00000070: 5ebf ae3d b5f1 c83d c3de ae3c 87ab c73d
00000080: f196 a03c 164f 343d b00d f6bb f2f1 b73b
00000090: 2443 123d b0bb d53d b45a 3dbd 9bab 023e
000000a0: 2acd ca3c 0865 473c b5b5 883d 1b01 b43d
000000b0: e97a 7b3c edfa e83b 88e6 8c3c a867 ef3c
000000c0: 0828 29bd 0e74 6f3d 0cff bf3c 9346 f63d
000000d0: 27ef 2bbe d39b 92bc 1a02 543d 430e 553d
000000e0: dfe6 ea3d 38c1 cfbc 172e cd3e cb0a 253d
000000f0: b49c 723c f5db 9e3d 6f40 5ebe 5136 3d3e
00000100: abf7 3bbc 5e00 b6be 687a b03c c2ce 743d
00000110: 112f c3bd c0fb 67bd e07a 813d a048 03bb
00000120: 5b4d 6a3d 691e af3d 1312 12be 282a a1be
00000130: 1ec9 f03d ecb1 54be 253f b4bc 2ceb 833d
00000140: cbcf c83d ae38 d53d 14f8 6ebd bffc 263d
00000150: d289 0a3d 8db2 8bbc 8bb4 903d 6e30 c03c
00000160: 5264 db3c b0a1 38bd 9918 1ebf ec3d 02bc
00000170: a0d9 db3c ab06 b6be 948c 8d3d 010c 003e
00000180: 60c4 913d 86c8 7bbc 601a 66bd 448b 0cbc
00000190: 910c ce3a 7c2e cfbe a513 7e3c 64d0 193d
000001a0: 05e7 0c3e 820b 293d 7fa2 3e3e 9adc 0a3e
000001b0: cb76 903c 3f95 3d3e 2eec 583d f59b 46be
000001c0: f5fb 6b3d ff5c d0bd c335 b0bb 8be9 33ba
000001d0: cc58 1c3d 7011 e33c d81d e63d eef7 72bc
000001e0: 02cc 673b e4e1 863e 3104 663e 8189 1abe
000001f0: 7479 b23d 900b 3b3d f20b dabd e653 613d
00000200: 08a1 0d3d 486a b53d 7f71 b63e 2f73 9dbd
00000210: 4021 cc3b d8cb f73e da38 1dbd a013 c53d
00000220: d64d 0e3d f4cc d93c 2643 e33d ab15 3fbd
00000230: fb85 c2ba 9c01 b23c 8e91 113e ce18 6ebe
00000240: 023b cf3d 7452 9c3e 0fb3 8e3d b938 be3c
00000250: 8c4f 0b3c 63b4 c63d c029 3f3d f456 01bf
00000260: 9527 a33d d51b 323d 6780 8b3d a65b 09be
00000270: bd0b 8d3c 1cd3 003d b466 173e 8b12 523e
00000280: b294 01bd 31b8 863d 5508 c23e 2bd5 1dbe
00000290: 384d 963d 5bf9 b9bd 3041 91bc 3949 a6bd
000002a0: fcae 433d 055a f0bc 4eec 133c 33d4 c0bd
000002b0: 52be ea3d 7c69 bf3a 2dc1 18bb 1b55 48bd
000002c0: 5c30 403d af1f 36be 9c3b ad3d 5d29 ea3d
000002d0: 294c a53d 4567 a73d 4aa5 713d 7b95 dc3c
000002e0: 92e4 f13c ed63 ed3d bff9 db3d 0216 c03c
000002f0: d1b5 dc3d a228 cc3c 8641 4f3d dbb2 ac3e
00000300: 3ee2 67be cd3a 5d3d c0fe 87bb 575f 183e
00000310: a253 b8bc 664c ac3d 8f4c 15bd ebe3 ed3d
00000320: 33ac a3be 8dab ca3d 5c17 5ebd 87a6 83bc
00000330: 588f ec3c 0493 db3b db64 4b3d 2724 433b
00000340: 746f be3d 9321 f83d 6db5 aa3a 6ced 2b3c
00000350: ce7e 3ebe e89d 843d fe8b 7abc aa89 a9be
00000360: 26b8 db3d 4cf6 44bd 091e e53d 962f 0b3e
00000370: c24f 023d 8e8c a63d 0341 8cbd 417b 223e
00000380: 2e81 333e ee7e febc 97c6 22be 3d78 2fbc
00000390: 6247 72be 7e2b e43d de22 173d 201d ee3d
000003a0: b409 ab3d 0c50 5f3d 25a7 9c3d 0b32 b8bd
000003b0: 640a 093e ee0d 2abe 0d10 a5be bb3d 023d
000003c0: 05f6 e73d 0886 b6bb 4396 c13d 6f62 513e
000003d0: bed4 b93d f681 d03d b288 05bd 1516 733d
000003e0: 1ba8 4c3e d019 0b3e 7888 d53d c194 2bbe
000003f0: 4071 113d ac3a f2bc d1a4 a43e 19ae 00bf
0.04437444 -0.2126241 -0.34795597 0.021185553 0.287265 0.15723553 0.09648442 0.052457668
-0.003895373 -0.030009223 0.06271754 0.06336351 0.3907198 0.06636948 -0.057488993 -0.10575815
-0.029763922 0.022615062 -0.007229444 0.095513046 0.0052817753 0.13376914 0.039067063 -0.015406378
0.09187361 0.03735501 0.43801248 0.029371776 0.08532594 0.09811727 0.021346455 0.09749513
0.019603224 0.044020735 -0.007508956 0.005613559 0.03570856 0.10436189 -0.04622908 0.12760775
0.024756033 0.012170084 0.06675283 0.08789273 0.015349128 0.007109991 0.01719977 0.029224232
-0.041297942 0.058460288 0.023437046 0.1202518 -0.16790448 -0.017896568 0.051759817 0.052015554
0.114698164 -0.025360689 0.40074226 0.040293496 0.014807869 0.07756797 -0.21704267 0.18477751
-0.011472623 -0.35547155 0.021542743 0.059767492 -0.095304616 -0.056636572 0.06322265 -0.0020032302
0.05720268 0.08550722 -0.14264707 -0.31477475 0.1175711 -0.20770997 -0.022002766 0.0644134
0.09805258 0.104112014 -0.058342054 0.04076838 0.033822842 -0.017052913 0.07065686 0.023460593
0.026781235 -0.045076072 -0.61756283 -0.007949334 0.02683717 -0.35551962 0.06911579 0.12504579
0.07117534 -0.015367633 -0.056177497 -0.008578125 0.0015720298 -0.40465152 0.015507613 0.037552252
0.13760002 0.04127074 0.18616675 0.13560715 0.01763477 0.18513964 0.052959614 -0.1939543
0.05761333 -0.101739876 -0.0053775026 -0.0006863109 0.03817062 0.027718276 0.11236161 -0.014829619
0.00353694 0.26344216 0.22462536 -0.15091516 0.087145716 0.045665324 -0.1064681 0.055011652
0.0345774 0.08858162 0.35633466 -0.07687985 0.0062295496 0.48397708 -0.038384296 0.09622884
0.0347422 0.026586987 0.11096792 -0.046651524 -0.0014840955 0.021729283 0.14215681 -0.2325165
0.10118677 0.30531657 0.069677465 0.023220407 0.008502852 0.09702375 0.046670675 -0.50523305
0.07966534 0.043483574 0.068116 -0.13413867 0.017217511 0.03145133 0.14785272 0.20514886
-0.031635948 0.065781005 0.37896982 -0.15413348 0.07338947 -0.09080764 -0.01773128 -0.08119435
0.0477743 -0.0293398 0.009028507 -0.09415474 0.11462082 0.001460358 -0.00233085 -0.048909288
0.04692112 -0.17785524 0.08458635 0.11433671 0.08071167 0.08173994 0.058995523 0.026926747
0.029527936 0.11591325 0.10740995 0.023447994 0.10776866 0.024921719 0.050599597 0.33730206
-0.22644898 0.054011155 -0.0041502416 0.1488012 -0.022500817 0.08413009 -0.036449965 0.116157375
-0.31967315 0.09896002 -0.054221496 -0.016070617 0.028876945 0.0067008752 0.04965673 0.0029776187
0.09298602 0.12115779 0.001302404 0.0104936175 -0.1860306 0.06475431 -0.015292166 -0.33112842
0.10728483 -0.04808645 0.111873694 0.13592371 0.031814344 0.081322774 -0.068483375 0.1586733
0.17529747 -0.031066384 -0.15896069 -0.010709819 -0.23660043 0.11141108 0.036898486 0.11626649
0.0835146 0.054519698 0.07649068 -0.0899392 0.1338287 -0.16606876 -0.32238808 0.031797152
0.113262214 -0.005570177 0.09452488 0.20447706 0.090737805 0.10181038 -0.032601066 0.05934723
0.19986002 0.13584065 0.1042642 -0.16755964 0.035508394 -0.029568993 0.32156995 -0.5026565

fc2.bias f4 [3]
00000000: bc6b 88bc b75c 1b3d 888f 863d
-0.016652934 0.037930217 0.06570345
